model.pt (torch, 84999 bytes, 10 tensors)

weight_ih_l0 f4 [90, 126]
00000000: 3c1e 14be 6335 6e3e 8ab7 a63e df15 8c3c
00000010: 67da 083e 2200 913f 86a8 85be 247b d33d
00000020: f43c 233f fccb 94be 8207 253d 484e 363e
00000030: bdfc 70be 2c9a a13c 5e51 d53e 50da 4ebe
00000040: eeff a2bc 65ce 1d3d 68be 48be 79ec 423e
00000050: 2636 e5be 4686 41be 537f 9c3e 27f1 c1bb
00000060: 040d 13be 3ee4 8b3e f778 b03d bb14 9cbc
00000070: 7493 a43d b025 aabe 5687 84b9 5082 623e
00000080: 073d 81bf 6dcf 9f3c e23e 053f 30bd 50bf
00000090: a632 f3bc 98a2 d83e 5873 dc3d 0b2e a63a
000000a0: 82d0 6c3e 7780 2ebf a7aa e0bc ba60 023e
000000b0: 968d a1bf 7689 98be b9a0 ed3e 68fd e4be
000000c0: a3f4 1b3d 082b f63e 84e9 68be 4517 e4bd
000000d0: b00e 1f3e 1beb 37bf 9ae9 83be a845 983e
000000e0: 3a16 29bf 7b9a eabd 2472 ed3e 74a7 b1be
000000f0: 1274 1fbd c026 cc3e 42f8 91bd a0e8 0b3d
00000100: d3ed 31bd 82f0 7ebe 1296 813e 08ce 413c
00000110: 82b9 183e cd82 a2bc 183b 2d3d 1040 173d
00000120: 7ca7 283e ae24 75bc afd8 1a3d 5b03 b83d
00000130: f076 1fbe fd11 6dbe f1e3 a03d 2ad4 babd
00000140: 999c 10bf 363c b1bd 69e2 80be 0874 17bf
00000150: 19e5 9dbd 9a78 f13c 836d 13bf 18b5 3e3e
00000160: 9cb5 73be 5545 8cbe e70a 773e 692e 37be
00000170: 3802 07bf 6530 e33d 77f1 32be f3c0 bebe
00000180: f8ac b13c 440b 1bbe 7e75 93be 6598 573d
00000190: 6382 8cbc 792c 04be 9266 a43c c48b 4fbd
000001a0: fd81 a1be 8385 b73b ca98 6cbe 95b8 29be
000001b0: 475f 93bd f5b7 513d 8938 87be 0ca5 4f3c
000001c0: 9477 4fbd ad99 b03d 5616 933a f75c 78ba
000001d0: daab cdbd 1406 203e 207d f6bd 267c 78be
000001e0: 0366 e53d 7762 53be 7695 c1bd bcdc 0abd
000001f0: 814e f1bd 8e40 36bd c4d5 673e 9820 4ebd
00000200: 0c5c 5cbd 274b d0bb 21d2 1dbd 7966 35bf
00000210: fc88 973b 5955 c63d a75f e9bd 81ec 8b3d
00000220: f11c 323e 8774 403e 2eb8 e93d f79e 29bc
00000230: 84ce ea3e 2e38 b53d e1eb 283e 7715 f7be
00000240: c283 cd3b 0b97 a33d 0ed0 1f3f 958d 81bd
00000250: c521 f63d 42f3 0e3f 4bf6 4c3e 0521 7cbe
00000260: a902 9b3e 316c 543e b135 2b3d f26e 493e
00000270: dc2d ae3d 78f4 f53d f006 dd3f a8dd 093e
00000280: 075d 703d 6434 8d3f e18f 963b 152c b3be
00000290: da69 2a3f 49fb 853e 3ec6 cdbd 95e2 3b3f
000002a0: 01b9 383d f01a 083d 0dff cd3f 8c3d 803e
000002b0: dd2c 13bd b0c8 8c3f bb62 d03b 6d58 4dbe
000002c0: cfb7 173f bed5 2b3e 09ee 133e 4666 923f
000002d0: e688 6d3e 0cfe 2dbd a068 823f 1866 043d
000002e0: 2432 79bd dacf 5e3f 737a 7a3e 2c19 6fbc
000002f0: bbb3 323f 2324 8e3e f941 db3d 7657 ffbd
00000300: 62ee ed3e ae38 e33d 172a ecbe 6275 c03e
00000310: ff12 b33e 866f d6be afe3 9d3e 70be e33d
00000320: 91b1 1bbf b9e9 e33e c794 743e 2dd6 42bf
00000330: c627 ef3e b763 ad3e f8fd a3be 54e0 453e
00000340: cbf3 c53e cad8 a1be 460b 803e 5c7f 1d3e
00000350: eaa5 2cbf 3bb0 b73e c038 a13e 2413 fbbe
00000360: ee21 ee3e b7bf c83e bea0 e5be 59e1 f13e
00000370: 5bb3 753e 4ebb ddbe 7bd4 d93e bcf6 5a3e
00000380: 4bbf 2bbf 4a4a d63e 7944 1d3e 26ab 03bf
00000390: 4720 e23e 668a 033e 9551 1dbf 1dd5 073f
000003a0: bb9f ab3e cb53 3bbf 788e 9f3e 1f53 853e
000003b0: 418e 24bf e584 a63e ab19 393e e018 cfbe
000003c0: 51bc 323e 28b7 603e ecd0 1ebf fd23 9e3e
000003d0: e748 ae3e 2f03 3cbf 5bb0 a73e 5c26 363e
000003e0: dc46 ddbe 84c7 903e fc51 8f3e 6baa 1dbf
000003f0: 5e9f 283d 0610 af3c 472b 9dbe e8d4 113e
-0.14464658 0.23262553 0.32561904 0.017100273 0.13364564 1.1328166 -0.26105136 0.103262216
0.6376488 -0.29061878 0.040290363 0.178033 -0.23533912 0.019726835 0.4166364 -0.20200467
-0.019897427 0.03852691 -0.19603884 0.1903552 -0.44767874 -0.18898878 0.3056589 -0.00591864
-0.14360434 0.27322572 0.08616822 -0.019052854 0.08035937 -0.33231878 -0.00025277835 0.22120023
-1.0096749 0.019508088 0.52049077 -0.8153868 -0.029687237 0.4231155 0.107641876 0.0012678517
0.23126414 -0.6816477 -0.027425123 0.12732211 -1.2621334 -0.29792374 0.46411684 -0.44724584
0.0380751 0.48079705 -0.22745329 -0.11137251 0.15532947 -0.7184312 -0.2576416 0.29740644
-0.6604954 -0.11455246 0.46376145 -0.3469807 -0.038929053 0.39873314 -0.071274295 0.034157395
-0.043439697 -0.24896434 0.25309807 0.011828907 0.14914516 -0.019837761 0.042292684 0.03692633
0.1647014 -0.014962358 0.0378043 0.08985015 -0.15572715 -0.23151393 0.078559764 -0.09122498
-0.5648895 -0.086540624 -0.25172737 -0.59161425 -0.077097125 0.029476453 -0.57588977 0.1862377
-0.23799747 -0.27396646 0.24125253 -0.17888798 -0.5273776 0.11093215 -0.17474924 -0.37256584
0.021688923 -0.15141016 -0.28800577 0.05263557 -0.017152017 -0.1290759 0.02006844 -0.0506704
-0.31544486 0.0056006326 -0.2310516 -0.16574319 -0.07195907 0.051200826 -0.2641032 0.012673628
-0.050651148 0.08623061 0.0011221867 -0.0009474302 -0.10042544 0.15627319 -0.120355844 -0.24266109
0.11201098 -0.2064303 -0.094523355 -0.033901915 -0.117825516 -0.044495158 0.22640139 -0.050324053
-0.05379872 -0.006356615 -0.038530473 -0.70859486 0.004624484 0.096842475 -0.11395197 0.06832219
0.17393853 0.18794452 0.114120826 -0.010352842 0.45860684 0.08848606 0.1649623 -0.48258564
0.0062718103 0.079877935 0.6242684 -0.06325833 0.1201816 0.5583993 0.20015828 -0.24621971
0.30275467 0.20744397 0.04179925 0.19671229 0.08504841 0.12009519 1.7267742 0.13463461
0.058682468 1.1031613 0.0045947884 -0.3499457 0.66567767 0.26168278 -0.10047577 0.7339261
0.04509831 0.033228815 1.609346 0.25046957 -0.035931457 1.0998745 0.006359426 -0.20053263
0.59264845 0.16780755 0.14446272 1.1437461 0.23196754 -0.042478606 1.0188179 0.032323927
-0.060838833 0.87035906 0.24460773 -0.014593404 0.69805497 0.27761945 0.10705943 -0.12467854
0.46470934 0.11094795 -0.46125862 0.37589556 0.3497543 -0.4188196 0.3083777 0.111203074
-0.6081782 0.44514254 0.23884879 -0.76108056 0.46710032 0.3386514 -0.320297 0.19323856
0.38662562 -0.3161071 0.250086 0.15380615 -0.67440665 0.3587664 0.3148861 -0.4903804
0.4651026 0.39208767 -0.448492 0.4724224 0.239942 -0.43306965 0.42544922 0.21383184
-0.67088765 0.41853553 0.15358151 -0.51433027 0.4416525 0.12845764 -0.6145261 0.5305956
0.33520302 -0.7317473 0.31163383 0.2603998 -0.6427956 0.32523265 0.18076198 -0.40448666
0.1745465 0.21944869 -0.6203754 0.30886832 0.34039995 -0.7344236 0.32751736 0.1778807
-0.43218124 0.28277218 0.27992237 -0.6158816 0.04116761 0.021369945 -0.3069708 0.14241374

weight_hh_l0 f4 [90, 30]
00000000: 7801 1d3e f932 02bf 1c8e ec3d 173e 403f
00000010: a529 de3e 0979 21bf 8e06 37bf 67cd 1f3f
00000020: c937 503d 0287 fd3c 7b79 eabd 65b9 3cbd
00000030: b833 653d 46e2 23bd e0de 453c 5caf 753e
00000040: 4d8c 353e e419 0abd b384 25bd 58fd b73e
00000050: d471 03bd cd72 1ebe 35b3 dfbd 4e4c 1dbe
00000060: 97d2 093e 6cd0 a2bc 9aac 24be 2f28 edbe
00000070: 382b 27be 295b 71be f9ca c4be 0530 4b3f
00000080: 5084 1bbe 99a7 0ebf 5d06 21bf e224 923e
00000090: 2d58 883e ffa3 05bf b14a f8bc f8c3 ab3e
000000a0: f888 643e 89b0 c5ba d2e7 183e e362 a03e
000000b0: 2e98 ea3e 14cc 2a3e ac0f 7dbe c71c 1d3d
000000c0: 29e1 27be b65c 4d3e b8a7 61be aa56 033f
000000d0: 9204 4fbd 8c38 b0be 780c 53be a8bb 70be
000000e0: 72f5 80be 02cb 973e 25c4 773d 5862 63be
000000f0: 183e 2c3e b031 d93e 5e13 5bbc 6fba 57bc
00000100: d69d a7be af69 d9ba 037c 123f 2337 8dbd
00000110: 0819 88be ee66 a93d 6cb5 4dbe b055 a53d
00000120: 27fe 2fbd f5ee b6be c8fe 26be cc46 adbe
00000130: b0e9 aabe 4e9c f13d 48d6 d5be 01d3 f4bd
00000140: f0dc a63e f5fa 33be a38c be3d 55c2 2b3f
00000150: 4490 82bc 5f35 38bd 077f 38bf a7b9 c13e
00000160: b545 113f 898c 50be cb32 6bbe b830 0f3f
00000170: d65f 8b3d 5848 163e 6f3b 8bbe 1557 43be
00000180: 4668 0abf e274 603e e055 0fbe 3325 2f3e
00000190: 0071 5ebe aff2 8a3e 14ef 1abd 0458 363f
000001a0: 7435 553c 6fbe 863e 1310 093f d3c3 693d
000001b0: 1803 633e 4718 8ebe 53aa f23e dedf 8abd
000001c0: 241f 8cbe 6b14 5c3d da83 363e 5ae9 0abe
000001d0: 8652 333e f75c fb3e de01 e4be 0ced 62be
000001e0: 048d c3bd 51a2 0a3f 0f9e 15be 4f79 8cbe
000001f0: 79b3 23bf e9ac 33bd 2e49 49be d7f0 d93d
00000200: 215e 30be 3aea 3c3d 9c19 073e 2a3e 18bd
00000210: 928e fa3e d343 b43e e137 e7bb 559b 4fbd
00000220: 0696 19be 346d 1e3e 013f a3be d861 163f
00000230: 5cd9 babe a713 3a3e fcf4 103e 8ca5 e83d
00000240: 9324 a3be 3089 d6bd 7c69 5cbe 60c9 53bd
00000250: 5155 323f 280a 3dbe def8 1d3f fde0 c1bd
00000260: 0cb7 203d 318c f93d 01d5 4e3e f8d7 25be
00000270: e09e 3e3c d091 00bd 326b 0bbb 9b3d 06bf
00000280: 3305 f4be 636d 0e3e ba58 47bf 2f74 b13e
00000290: 0850 34bf da51 2dbe 38f5 8c3e b198 d8be
000002a0: c0fb 0f3e 3f51 74bf f670 c23d 3e2c 1fbf
000002b0: cd53 c9be 7380 ca3e 2523 b33e 3797 c63c
000002c0: d1a0 423e 5f97 11bf 8525 b9be 1c8d 273d
000002d0: 6aa2 593e ebdc fbbe b480 283d 23b0 b03e
000002e0: f2fc 1b3f 396a 96be ee68 a8be 0429 2a3e
000002f0: b776 91bd 78df 93be 0f83 e53c 9d09 5a3e
00000300: c3e3 b1be 26d9 64be c0ac cabe d51f b03e
00000310: d3a8 a43e deea 46bf 245a 143f 71a3 cfbe
00000320: 242e 39be 75b1 90be 04e5 cebd e4e9 18be
00000330: 8000 cf3e 5058 103e d6dc f63e 6c6c 00bf
00000340: ab58 bcbe 4e1a d9bc f812 a6be eba0 1c3e
00000350: c8f8 5f3e 00d5 873e 3612 8a3e 22e0 20be
00000360: fab2 31bd 407a 313f 09cf 77be aaef 8bbe
00000370: 67a1 0c3e 2b32 ce3e bdc8 293d 808f 6f3e
00000380: f648 e53a 295d 123f c6f9 fe3e 87e6 52be
00000390: 49ac 4a3f 0a84 b83e 59c5 083f 94d5 133e
000003a0: 8a21 2bbe 1c83 0ebd 63a7 8d3e aca3 5c3d
000003b0: 8c66 8cbd 24ed bbbc bdd7 4ebe ac84 86be
000003c0: fd0a d73d 46c9 ea3e f7f7 f1bc b003 91be
000003d0: bd25 0ebf 81bd 0c3c 3dde bf3c 1bc3 55bd
000003e0: 1a6b c0bd 08f5 653e 1f16 0f3e b8a2 9c3d
000003f0: 3e45 a1bd 352d 373f b708 a33e 1d24 7a3e
0.15332592 -0.5085903 0.11550543 0.7509474 0.43391147 -0.6307531 -0.71494377 0.62422794
0.05083445 0.030948166 -0.11448952 -0.046075244 0.055957526 -0.040010713 0.012077063 0.23992676
0.17729302 -0.033716097 -0.040409755 0.35935473 -0.032090977 -0.1547348 -0.10922853 -0.15361139
0.1345924 -0.019874774 -0.16081467 -0.4631972 -0.1632508 -0.23569931 -0.38436106 0.79370147
-0.15187192 -0.55724484 -0.62900335 0.28543764 0.26629773 -0.52203363 -0.030309053 0.3354795
0.22317874 -0.0015082519 0.14932182 0.31325445 0.4581923 0.16679412 -0.2471301 0.038357522
-0.16394486 0.20054898 -0.22036636 0.51304114 -0.050541468 -0.34418142 -0.20610225 -0.23509085
-0.2518726 0.2964707 0.060489792 -0.22205484 0.16820562 0.4242072 -0.013371317 -0.013167008
-0.32737607 -0.0016587282 0.57220477 -0.06895282 -0.26581597 0.082715854 -0.20088738 0.08072984
-0.042966988 -0.35729185 -0.16308129 -0.33843076 -0.33381414 0.11797391 -0.41765046 -0.11954308
0.32590437 -0.17576201 0.09304168 0.670934 -0.015937932 -0.044972774 -0.7206883 0.37836954
0.5674699 -0.2036611 -0.22968595 0.55933714 0.06805389 0.14676034 -0.27193782 -0.19076188
-0.5406536 0.21919587 -0.13997602 0.17104034 -0.21722794 0.27138278 -0.03782566 0.7122805
0.0130132325 0.26317164 0.5354015 0.05707152 0.22169149 -0.27752897 0.47395572 -0.067809805
-0.27367508 0.05373041 0.17823735 -0.13565579 0.17511949 0.49094364 -0.44532675 -0.22160739
-0.09548381 0.54153925 -0.14611076 -0.274363 -0.6394573 -0.04386607 -0.19656822 0.1064164
-0.17223407 0.046121813 0.13193363 -0.03716866 0.48936898 0.35207996 -0.007056222 -0.050685246
-0.14998636 0.15471345 -0.31884006 0.5874305 -0.36493957 0.1817156 0.14155954 0.113597006
-0.3186384 -0.10475385 -0.21524614 -0.051705718 0.6966143 -0.18460906 0.61707866 -0.09466741
0.039237067 0.121849425 0.20198442 -0.16195667 0.011634558 -0.031389058 -0.002127361 -0.5243775
-0.47660217 0.13908915 -0.7786976 0.34658954 -0.7043462 -0.16925755 0.27530837 -0.42303994
0.14060879 -0.9543647 0.09494202 -0.62176883 -0.39321747 0.39551124 0.3498775 0.024242027
0.19006659 -0.568716 -0.36161438 0.040906057 0.21253362 -0.49191985 0.041138366 0.34509382
0.6093284 -0.29377916 -0.32892555 0.16617209 -0.07102721 -0.2888143 0.028016595 0.2129273
-0.3474408 -0.2234846 -0.39584923 0.34399286 0.32160053 -0.7770213 0.57950044 -0.40554383
-0.18084008 -0.2826039 -0.10102275 -0.14932972 0.4043007 0.14096189 0.4821536 -0.5016544
-0.36786398 -0.0265018 -0.32436347 0.1529576 0.21872246 0.26529694 0.2696702 -0.157105
-0.043383576 0.69327164 -0.24200071 -0.27331287 0.13733445 0.4027265 0.041451205 0.23394585
0.0017493058 0.571734 0.49799937 -0.20595752 0.79169136 0.36038238 0.5342613 0.14436942
-0.16712013 -0.034793004 0.27666768 0.053867027 -0.06855497 -0.022940226 -0.20199485 -0.26273096
0.10500143 0.45856684 -0.029537184 -0.28323126 -0.55526334 0.008590103 0.023421401 -0.05218802
-0.09395428 0.22456753 0.13973282 0.07648224 -0.07874535 0.71553355 0.31842586 0.24427839

bias_ih_l0 f4 [90]
00000000: 5e1b 993d 228f 99bc c903 943b 96da aa3e
00000010: 7e9d b7bd 2b56 07be 7468 223e 38f0 9f3e
00000020: 6bca b03c 3dbc 2e3f a7fd 9c3b a97f b03c
00000030: ce80 1ebc 67f8 b53d b820 71be 4b4b 7a3e
00000040: 8912 5fbd d3a4 023e ae8c 543e 40ad 423d
00000050: e58a f1bc e3f6 203f 4914 bd3e a0cf 36bd
00000060: 2bb0 613e 49a6 a63e 7f74 193e 4977 5d3e
00000070: 7c9f 9dbd 4862 49be 0c10 c4be 89fd 753e
00000080: 1489 653e 8350 05bd d50a 16be 018c f53d
00000090: ea02 d93c 2884 973e 4c9a b43e 9cb9 a53c
000000a0: 50c8 2a3e d7e8 2c3e eaf8 7ebe 2e74 913e
000000b0: a513 68be a352 073e c8d5 313d 995e edbc
000000c0: e641 ab3e 82a7 d53c 47d3 ea3d 763d 87bc
000000d0: 0158 793d c8eb fd3c 70c3 bcbd e9bb 95be
000000e0: af1e 443e 285c 8cbd 658f c7bd 77f0 9d3e
000000f0: e6e9 c6bd a9dd 2dbd 1d86 db3c 1765 bbbd
00000100: 9858 d73d 31ea 98be 944c 90be 2683 c33d
00000110: ec6a 4dbe 1dee 02bd 2e23 873b 4606 c53d
00000120: 6322 a13d edd5 25be df5d 723e 329c 863e
00000130: 0f88 9c3e 47ef 54be c56c 333e e7e8 703e
00000140: 49c8 b23d 04ad a33d 5972 b23d 445d 733d
00000150: 7fcb 5b3d c85f 023d 8e0d 0bbc eb98 30bd
00000160: 617b b9bd 1a0f eb3d
0.07475923 -0.018745009 0.004517053 0.33369893 -0.08965586 -0.13216464 0.15860158 0.3123796
0.021580895 0.6825598 0.00479098 0.021545248 -0.009674264 0.088852696 -0.23547637 0.24442784
-0.054461036 0.12758188 0.2075679 0.047528505 -0.029485175 0.6287672 0.3692954 -0.0446316
0.22039859 0.3254874 0.14985846 0.21627535 -0.07696435 -0.19666398 -0.38293493 0.24022497
0.22415572 -0.032547485 -0.1465257 0.11989594 0.026490647 0.29593015 0.3527397 0.020230107
0.16677976 0.16885696 -0.2489964 0.2840895 -0.22663744 0.13215117 0.04341677 -0.028975772
0.33448714 0.02608085 0.11466079 -0.016508799 0.060874943 0.030996218 -0.09216964 -0.29244927
0.1915233 -0.06853515 -0.09744147 0.30847523 -0.09712581 -0.04244772 0.026797349 -0.09150141
0.10514945 -0.29866174 -0.28183424 0.09546499 -0.20060319 -0.031965364 0.004124067 0.09620337
0.07867887 -0.16194887 0.23668621 0.26291043 0.30572554 -0.20794402 0.17521961 0.23526345
0.087296076 0.079919845 0.08713216 0.059415117 0.053660866 0.031829625 -0.008487118 -0.043114584
-0.09056736 0.1147749

bias_hh_l0 f4 [90]
00000000: 3e9b 163d 36f6 09be 69b4 52bd 3e19 033d
00000010: 97bb 373e 7cb1 0abd 7dc5 473e dea7 bd3e
00000020: c907 e43d 3c7f b33e 85cb 9b3c 2604 153b
00000030: ebd1 843e 9d33 d23d 62b7 a2be 48dd 093e
00000040: 6603 133e a199 773e 45be a63e 2021 173e
00000050: fa58 b13d c291 db3e 75bf a73e b490 98bd
00000060: 6a01 553e f06b 413e 158b 063e eb93 5e3e
00000070: 0a68 c83b 8848 1bbe 5b3b bbbe 1259 ee3e
00000080: ed0e 7a3e 4464 b7bd df45 d83d 6db6 6bbe
00000090: 2846 b6bd 83e8 8c3d 6af6 623e 9526 dcbd
000000a0: 628a 403e 70c7 5b3e 55bd 24be 4791 da3e
000000b0: 1d56 da3d fe3a 393e 54fc 893e 0ee7 49bd
000000c0: 5be9 ce3d b1d8 773d f233 8e3e 33a8 49bd
000000d0: 3674 183e 8285 febd 6705 093d 1952 93be
000000e0: ac72 f53e f1c7 0cbe 1030 d83c ab4e 273e
000000f0: 44cd 97be 2474 753e 8bec 8abc 1be7 953e
00000100: 9e04 14be 3dde eabd 971d e8bd 345d ad3d
00000110: 25d6 c5bd 5ab7 043e 5816 e13d 0e19 db3d
00000120: 16a4 fc3d a29e cbbb 8532 973d b257 7f3e
00000130: 28e7 a33e 5d50 c93c dfd3 eb3d 4a48 b73d
00000140: 3398 fa3d 72ca a43d 0c59 dbbd aa8b babd
00000150: 776c 03be 0a98 febc 641a 84be a91e 223e
00000160: c0a6 65be 506c 44bd
0.036769144 -0.13472828 -0.051441584 0.032006495 0.17942654 -0.03386067 0.1950893 0.37042135
0.111342974 0.3505801 0.019017944 0.0022738068 0.25941405 0.10263751 -0.31780535 0.13463318
0.14356765 0.24179699 0.3256704 0.1475873 0.08659549 0.42884642 0.32763258 -0.07449475
0.2080132 0.18888831 0.13138993 0.21736114 0.006115918 -0.15164387 -0.36568722 0.4655233
0.24419756 -0.08954671 0.10560202 -0.23018809 -0.089001 0.068802856 0.22164312 -0.107495464
0.18802789 0.21462798 -0.1608785 0.42688963 0.10660956 0.1808891 0.26950324 -0.049292617
0.10103103 0.060509387 0.27774006 -0.049232673 0.14888081 -0.12427808 0.033452418 -0.28773573
0.4793905 -0.13748147 0.026390105 0.16338603 -0.29648793 0.23970085 -0.016958496 0.29277882
-0.14454886 -0.1146817 -0.11333769 0.08465043 -0.096599855 0.12960568 0.1099059 0.10698138
0.123359844 -0.006213979 0.07382683 0.24935797 0.32012296 0.024574453 0.115150206 0.08949335
0.12236061 0.08046426 -0.10710344 -0.0910867 -0.12834345 -0.031078357 -0.25801384 0.15832008
-0.22426891 -0.047954857

weight_ih_l1 f4 [90, 30]
00000000: ede2 95be 21ac f83d 29e6 dc3d e8a7 293d
00000010: f404 4fbe 11e9 3d3e f2ed 91bd 6ed2 8e3e
00000020: a0b4 a8be f15e 1c3e 2387 b5bb ccff 63be
00000030: 6d99 44be 0f26 433e b557 c4be 6500 44bc
00000040: e4d8 4d3e 7f48 26bd ec2b 0dbe 5aa5 70bd
00000050: 5404 863e 0b1b d7bd 5864 0cbd 22a1 83bd
00000060: a90e 393e b9a3 7c3e b7da c6bd 37eb e03e
00000070: f44a 29be e7a1 41be 89d9 47be 86da 003e
00000080: e102 6d3e 28a4 153e 1804 1bbe 2992 10bc
00000090: 07d2 27be a25e febc a8ab d9bd 6ae6 f2bc
000000a0: 8b09 33bf c604 5b3e a7cc 213d 578e 4ebc
000000b0: a294 8abe 4179 9f3d 2d36 e43e fecf 013c
000000c0: 921d 29bd c70f d43d ce9d 303f 4859 173d
000000d0: 4729 883d 2815 1c3f d6bc 433e 4207 a03d
000000e0: cb6f 49be 3167 433e f73d 9fbe e5ed 12bf
000000f0: b001 e0bd a21c d83e 6a10 da3d a86f 8cbd
00000100: 896a b8bd 029e af3e 2551 e73d 2a23 b8be
00000110: 6e49 71bd f395 e0bd 83dc 393e 24ad c73d
00000120: 9026 043f 992b 763c 9f17 843e 3bba 89bd
00000130: 0fdc 4cbe 39c0 9dbb c73a c8be 02d0 833e
00000140: 07d4 99be 7163 f13d 4b3f 113e 2ded 40be
00000150: 2315 b8be 141a 8bbe 2766 9bbd 357b ac3e
00000160: 25ed 9a3c c7ed 973d 3de0 243a f649 cdbd
00000170: 9b67 b63e 43d2 d93d 8096 ae3e b2d5 26be
00000180: da70 95be 1bc1 a03d d094 b8bc 95e2 e6bd
00000190: 29b4 b03d b7f7 4b3e 209a 80be 9345 d03d
000001a0: c5e6 8abe 3fb3 0bbe cbc2 ed3c e7e5 debd
000001b0: aa16 5d3e 1236 b33d 9068 493e 0a58 c43d
000001c0: 5679 91bd bd58 bbbc cf44 05be 57a2 463d
000001d0: 65f9 d33c f514 2d3d b088 163e 2add 75bd
000001e0: dad8 623e d4e4 0abe c0bc 983e 6a22 b43e
000001f0: b743 6e3e 5103 8e3e aa7c 793d 6674 8f3d
00000200: de58 01be 7272 fbbe 35fc 623e 2aaa c93e
00000210: b0a0 2a3e 7863 b1bd 960e 0d3e dc1e e83a
00000220: 0ca8 39bd 9349 e1be 8918 a6bd 21d2 853d
00000230: 4190 d43d df56 cfbe 04b9 16be f310 1d3e
00000240: 914b 153e 5bf4 123d 5bb8 c43c 4b38 d93d
00000250: d189 373e e0bb d5be 3477 8e3d 971c 883c
00000260: 85d4 503b 83dc b03d 65df 033e 751a 6ebe
00000270: 3d94 603d 5318 db3e 3cb8 68be 9fc2 42be
00000280: 8761 67be 3067 0d3f 57c0 9fbe c99b 90bd
00000290: 686b 83bd 3589 0f3e fcda 39bc 0e9e 55be
000002a0: 2ee1 8cbd 268b 4bbe 6bab b23e 4150 b63d
000002b0: 9ab5 03be e76c fc3d fc27 533e a45c ccbc
000002c0: 1f3c bc3b dae7 693e 683d 9ebc e108 aebd
000002d0: 0c61 3bbf 327a de3e a0e8 9a3e d8bd 4e3b
000002e0: fc0e 30be 6e28 813d ba5b 0dbe 6bc3 f03d
000002f0: 9108 9cbe 576d 483d c459 51bc 9a40 c93d
00000300: 7243 183c f4e8 d13d a083 333e acf8 573e
00000310: 86d6 a23d 0b33 ecbd 0e19 4c3d 11ba 98bd
00000320: 2fbd 683d 623b 3b3e 7c2d b23d 9b7d 00bf
00000330: e090 4a3e 8715 a1be 3e68 a33e 8024 843e
00000340: 511e 603d aa9a 9fbe e26b 05be 6b37 50be
00000350: a3cd 45be 0414 8e3e 72d1 a03d 8ff7 3ebf
00000360: a013 96bf 27cd f93d f9c4 3c3d 5f4c 013e
00000370: d6ca e93c 54ee 8c3d ef68 7d3c ef27 85be
00000380: bded e5bd abf4 573d 6800 883d 1fb4 41bc
00000390: fdbe 973d 95b1 ba3d 895e 833d 7e0c 593d
000003a0: 6863 ca3d a25f 77be 6336 fabd e0f8 c43d
000003b0: 9b1b f63e aa98 2fbc c560 8c3d 355f 7b3c
000003c0: ae96 dbbd 27f3 e6be 3fcf c53d 3e76 963e
000003d0: c492 86be 24c9 05be 9957 90be 4fd2 183e
000003e0: eb84 2abe a2e4 0b3e f056 2bbe 09d3 8c3d
000003f0: 9a86 3f3e 5583 0cbd 2c08 87be 0c0b 60bc
-0.29274693 0.12142206 0.10786087 0.041419894 -0.20216733 0.18545939 -0.071254626 0.2789492
-0.32950306 0.15270592 -0.005539791 -0.22265548 -0.19199152 0.19057487 -0.38348165 -0.011962985
0.20102268 -0.04059648 -0.13786286 -0.05875144 0.26175177 -0.10503205 -0.034275383 -0.06427218
0.18071999 0.2467183 -0.09709685 0.43929455 -0.16532499 -0.18909417 -0.19516577 0.1258336
0.2314563 0.14613402 -0.1513828 -0.00882391 -0.16388713 -0.031050984 -0.10628444 -0.029650886
-0.69936436 0.2138854 0.039501812 -0.012607179 -0.27066523 0.07786799 0.44572583 0.007923124
-0.041287966 0.10354572 0.6899079 0.03695038 0.06648498 0.6096978 0.19115004 0.07813884
-0.19671552 0.19082333 -0.31101963 -0.5739425 -0.10937822 0.42209345 0.10647662 -0.06857234
-0.09004695 0.34300238 0.11294774 -0.35964328 -0.05890792 -0.109661005 0.18150525 0.09749821
0.5162134 0.015025043 0.2579927 -0.06724974 -0.2000582 -0.0048141745 -0.39107344 0.25744635
-0.30044577 0.11786545 0.141843 -0.18840475 -0.35953626 -0.27168334 -0.075878434 0.3368775
0.018911907 0.07418399 0.00062895176 -0.100238726 0.3562592 0.10635807 0.34099197 -0.16292456
-0.2918766 0.07849332 -0.022531897 -0.11273686 0.08628113 0.19918714 -0.25117588 0.1016952
-0.27129188 -0.13642596 0.029023549 -0.10883694 0.21590677 0.087505475 0.19668794 0.095871046
-0.07103221 -0.022869462 -0.1301453 0.048494663 0.025875757 0.042256314 0.1470058 -0.06002537
0.22153035 -0.13563854 0.29831505 0.35182506 0.23268019 0.27736905 0.060909905 0.07004623
-0.12631556 -0.49110752 0.22166522 0.39387637 0.1666286 -0.0866155 0.13775095 0.0017709392
-0.045326278 -0.44001445 -0.081101485 0.065342195 0.10379077 -0.40495965 -0.14719015 0.15338497
0.14579608 0.035877567 0.024013689 0.1060644 0.17923667 -0.417449 0.0695633 0.016615195
0.0031864953 0.08635809 0.12878187 -0.2325228 0.05482887 0.42791995 -0.2272653 -0.19019555
-0.22595797 0.55235577 -0.3120143 -0.07060964 -0.064169705 0.14017184 -0.011343714 -0.20861074
-0.06878887 -0.198773 0.34896407 0.08902026 -0.12862244 0.12325459 0.20620722 -0.024946518
0.0057444717 0.2284235 -0.01931639 -0.08497787 -0.73194957 0.43452603 0.30255604 0.003154626
-0.17193216 0.063065395 -0.13804522 0.11756023 -0.30475286 0.0489324 -0.012777749 0.09826775
0.009293424 0.102495104 0.1753068 0.21090955 0.07951073 -0.11533173 0.04982858 -0.07457364
0.056821045 0.18284371 0.08700082 -0.5019166 0.19781828 -0.31461737 0.31915468 0.25809097
0.054716412 -0.31172687 -0.13029435 -0.2033364 -0.19316725 0.27749646 0.078524485 -0.74596494
-1.1724739 0.12197333 0.046086285 0.1262679 0.028539103 0.06881395 0.015466913 -0.2600703
-0.112269856 0.052723568 0.066407025 -0.011822729 0.07409475 0.09115902 0.064145155 0.05299043
0.098822415 -0.24157575 -0.12217405 0.09617782 0.48067936 -0.01071755 0.06854395 0.015342523
-0.10722099 -0.45107386 0.0965867 0.29387087 -0.26283848 -0.1306501 -0.28191832 0.14923976
-0.16652267 0.13661435 -0.16732383 0.06876189 0.1870369 -0.034304935 -0.26373422 -0.013674509

weight_hh_l1 f4 [90, 30]
00000000: 58bd cebe f54b 07bf 8c8e 513e 6ceb 5bbe
00000010: 074f 7f3e 0699 f73e f63b 06bf 89a6 3cbc
00000020: f564 91be 6d51 d03d d6a9 1ebe 9a12 8dbe
00000030: b83c 96be b929 36bf 194c aebe 8490 e2be
00000040: 7626 453f 8a3e c73e f5d3 debe ab67 7f3b
00000050: 8d2b 96be d55a 913e 1c96 943e 1fec 683e
00000060: 8be1 843e 1b2d 70bd 012d 8fbd 4b99 25bc
00000070: 5ad7 b8bd 0131 7fbe 3d3d 12be 209c c0bf
00000080: 65e9 973d f769 00bd f7bd 8cbb d0f4 df3d
00000090: b064 72bd 75fd 3a3e 341a 58be 2d04 39be
000000a0: d728 63be eb9b d33d c220 03be 0740 e1be
000000b0: a23a c2be 1f96 7cbe 5625 33bc b161 153e
000000c0: eee7 0cbd 1a03 f7bd e219 d3be 4fd0 003f
000000d0: a4dc 7f3e 1799 523e cad4 13bd d8f1 afbd
000000e0: 58b7 973d 5987 db3b 89b2 a13e e1f0 3bbe
000000f0: a4d2 623e 5597 e1bd e86f 713f ad9b 84bc
00000100: 55e3 ba3d 0310 d53d b32b 66be af4f 7bbd
00000110: baf7 80bd 1207 2c3c a5b5 53bd c645 e0be
00000120: ea15 9cbd 3e4d 693e 7c61 523e 7612 64be
00000130: fdbc f53e 143e 8e3d 735c d4bd 22a7 38be
00000140: a950 ba3d 15e2 f93d d486 84be 9902 e2bd
00000150: 7976 363e 22e3 71bd e338 6cbe ec6a 22be
00000160: 8fa8 1cbe 8814 9c3d d608 b53e b04b 69be
00000170: 11d1 2e3e 744d 43bf 24cc 9b3d aa87 b83e
00000180: b11b bdbd c244 053f 59bf a3bd 8e86 d8bd
00000190: 2424 9cbe 232b c3be 98fb b7be 1aad 31be
000001a0: 59ff 953d faa3 43be 03e2 213f ac4e af3e
000001b0: cbf8 84be e796 a0be 76ea 5cbe 6672 fdbd
000001c0: 7dd4 403e d76a 963e 07c4 f2be 893e 63bd
000001d0: 6b6c c73c 51cb 0f3e f85c ebbe 72ab 67be
000001e0: 2807 d0be 7f46 ebbd 74bf 453e e284 15be
000001f0: 3fd9 68bd 4e0a 473e f076 3b3e d566 9fbe
00000200: 333c 81be b90f 803e 34dd efbe b472 8cbd
00000210: 6eb0 63be a03e a7bc 2978 3e3c 6edd 92be
00000220: f5fd 0dbe 6a09 1a3e 3941 58be ffed cbbe
00000230: 5fbb 303e b650 bf3d d1b3 193e e1ca 9e3c
00000240: e601 ac3e 221c 913e fba5 843e bdc0 e33e
00000250: aed2 8cbe 092b 18bf de3b 3abc bd69 c6bd
00000260: ad10 f13c f6a5 d3be 2499 0f3f 84d7 1f3f
00000270: b51a 6abe 63c0 7d3e 15ca 71be 8f46 23be
00000280: f89f 0fbe 139b 72be 0ac7 33be ffe6 a4be
00000290: 0017 d7bd e8a3 70be 990c ce3e 7f00 b33e
000002a0: 09bc aebe 9760 c3be c64a 8ebe dc47 273e
000002b0: c4c9 df3e 502a 9c3e 0610 38be e48d 5cbd
000002c0: cc36 a23e 8cea 023e f7e4 c1be d69c 78be
000002d0: bd37 4bbe 9494 94be 6e83 d03e 3606 67bd
000002e0: 825a 063e 0501 253d 0842 72bf 5d38 b53e
000002f0: ee2d 8a3e 9b50 86bc d54f 27bd 2ba5 f2bc
00000300: b982 823d 092e 0b3d 35e8 8c3e 9422 c73d
00000310: 2155 5d3f 7f62 4cbd d20b 80be 5450 3fbd
00000320: da35 db3e 2aad 983e 88fb af3e 1d0c 9b3d
00000330: 8c9a b3be 5e0c a5be e143 6abe 3bba ccbc
00000340: e054 b9bd 2b7d fabd be29 353f cf8b 153c
00000350: a337 b1bd 9e09 39bc 2c06 083e 92f0 efbd
00000360: 7f3c 443e 0d8b 763f 5389 dabd 2865 10be
00000370: 5b20 1fbe fa5d fd3d f852 17be f30a 863d
00000380: f61f 3a3d a0b3 fe3d f768 fd3e 41e7 3c3d
00000390: b864 003d 59d1 8d3c 3ff9 07bf b77a 203d
000003a0: 047f 95be e7e5 9abe 6c4e 9fbe ab80 e0be
000003b0: 52d4 f9bd 726c 28bd f40e 7cbd 58ed 083e
000003c0: 8e81 e7bc 2eb6 bfbe 869c 0fbe 5e71 81be
000003d0: bf96 c43c c03d 253e e223 febd 62cd 1b3e
000003e0: 92bb 3bbf 25b3 be3c 34b0 28bd fef6 5b3d
000003f0: aa33 f4bd 20bd e1bd 1b88 2e3c 1261 96be
-0.40378833 -0.52850276 0.20464534 -0.21476525 0.2493249 0.48358935 -0.52435243 -0.011514314
-0.28397337 0.10171781 -0.15494475 -0.27553254 -0.293432 -0.71157414 -0.34042433 -0.44250882
0.7701181 0.389149 -0.43521085 0.0038971703 -0.29330102 0.28389612 0.29020774 0.22746323
0.25953326 -0.058636766 -0.06991006 -0.010107349 -0.0902545 -0.24921037 -0.14281173 -1.5047646
0.07417563 -0.031351056 -0.0042951065 0.10935366 -0.059178054 0.18260749 -0.21103746 -0.18067999
-0.22183548 0.10332473 -0.12805465 -0.4399416 -0.37935358 -0.24666642 -0.010934195 0.14588048
-0.034400873 -0.120611385 -0.41230685 0.50317854 0.24986511 0.20566212 -0.036091603 -0.0859105
0.07408017 0.0066994843 0.31581524 -0.18353607 0.22150666 -0.110151924 0.9431138 -0.016187513
0.091253914 0.104034446 -0.22477607 -0.06135529 -0.0629725 0.010499733 -0.0516869 -0.43803233
-0.07621367 0.22783372 0.20545 -0.22272667 0.4799575 0.06945434 -0.10369196 -0.18032506
0.09097416 0.12201325 -0.25884116 -0.11035652 0.17818631 -0.0590545 -0.23068576 -0.158611
-0.15298675 0.076211035 0.35358304 -0.22782779 0.1707194 -0.7629006 0.07607296 0.36041003
-0.09233797 0.5205804 -0.07995481 -0.10572539 -0.30496323 -0.38118848 -0.35934138 -0.1735119
0.07324094 -0.19105521 0.6323549 0.3423971 -0.25971064 -0.3136513 -0.21573815 -0.123753354
0.18831058 0.29378387 -0.47415182 -0.05547956 0.02434369 0.14042403 -0.45969367 -0.22623995
-0.4063046 -0.114880554 0.19311315 -0.14601472 -0.056847807 0.19437525 0.1830709 -0.31133142
-0.2524124 0.25011995 -0.46848452 -0.068578154 -0.22235271 -0.020415604 0.011625328 -0.28684562
-0.13866408 0.15042654 -0.2111863 -0.39830014 0.17258976 0.09341566 0.15010001 0.01938385
0.33595198 0.28341776 0.25907883 0.44482985 -0.27504486 -0.59440666 -0.0113668125 -0.09688137
0.029426897 -0.41337556 0.5609305 0.62438226 -0.2286175 0.24780421 -0.23612244 -0.15944885
-0.14025867 -0.23691969 -0.17556396 -0.32207486 -0.10502434 -0.23500025 0.40243986 0.34961316
-0.34127834 -0.3815963 -0.27791423 0.16336006 0.43708622 0.30501032 -0.17974862 -0.053846255
0.31682432 0.12784785 -0.3787 -0.24278578 -0.19845481 -0.29019606 0.40725273 -0.056402408
0.13120463 0.040284175 -0.94632006 0.35394564 0.26988167 -0.016395858 -0.040847618 -0.029619774
0.063725896 0.03397945 0.2752091 0.09723392 0.8645802 -0.04989862 -0.25009018 -0.046707466
0.42814523 0.29819614 0.3437159 0.0757067 -0.35078847 -0.32235998 -0.22877456 -0.024991145
-0.09049392 -0.12230905 0.7076682 0.009127571 -0.0865319 -0.011293797 0.13283604 -0.11715807
0.19163702 0.96305925 -0.10670724 -0.14101088 -0.15539686 0.1237144 -0.14777744 0.06545057
0.045440637 0.124366045 0.49494144 0.04611898 0.031346053 0.017311739 -0.53114694 0.03917953
-0.29198468 -0.30253527 -0.3111452 -0.43848166 -0.121987 -0.041119047 -0.061537698 0.1337179
-0.028260019 -0.3744368 -0.14024553 -0.25281805 0.023997663 0.16136837 -0.12409188 0.15215066
-0.73333085 0.023278782 -0.041183665 0.053702347 -0.11923917 -0.11022401 0.010652567 -0.29370934

bias_ih_l1 f4 [90]
00000000: 7c2c 81bd ddd9 113e 1966 313e 04f3 f2bc
00000010: e896 263f 74f5 c13d 2140 9f3e c64b 893d
00000020: fc2b 953e be2f 14be 2c6d 2d3e 31d3 05bd
00000030: 0a5d 133e 5bd4 103c e8db 363b b049 003e
00000040: 0392 04be 22be fb3d 5a75 3b3d 97aa 5c3e
00000050: d59c 443e cf58 47be 297f ed3e 492f 753e
00000060: fcd2 893c 7390 4b3e daeb e5bb db1e b03e
00000070: bca9 293e 3c38 fc3e a082 d33e 2a71 423e
00000080: 47a2 0d3e 2a6e 183e ec0d d13d bf79 7b3e
00000090: cbea aabd dfe0 72be 4ddc af3d 0fb0 cdbb
000000a0: de2f 193f ab15 cfbc 49fa c53e fd0f 643e
000000b0: 76fb 95bd 7408 083d aeb0 f53d 3005 cf3e
000000c0: 1676 dd3e d4fd 173f 259e 02be f5d4 c53e
000000d0: 544e 8abd 512f 773e 5767 95be 4a1e 603e
000000e0: a842 a0bd e34b 223f fc65 c73e c8e8 053f
000000f0: 1a9f 1c3d 23ef 8bbd ae62 3dbe eef9 febd
00000100: 2c08 e2bd 88c1 9abe a045 3d3e e390 6ebe
00000110: 8452 5dbd 9866 063e e53f 08bc 3ae0 b53d
00000120: 61a1 7b3d 1116 b53e 1051 1c3f 88de 4f3e
00000130: 46de 10bd d225 49b9 3882 66bd 4d97 edbd
00000140: 080c 8a3e 825e 4a3d e902 1fbd 6b5c b4be
00000150: a1bb 193f 9830 e23d 92b7 b1be 5839 0f3e
00000160: 4152 653e 0eb8 4abe
-0.06307313 0.14243264 0.17324103 -0.029656895 0.65074015 0.094706446 0.31103614 0.06703906
0.2913512 -0.14471337 0.16936177 -0.03267211 0.1439096 0.008839692 0.002790207 0.1252811
-0.12946324 0.12292124 0.045766212 0.2154945 0.19200452 -0.19467472 0.46386078 0.23943819
0.016824238 0.19879322 -0.007016641 0.3439854 0.16568655 0.49261653 0.41310596 0.18988481
0.13831435 0.14885774 0.102077335 0.24558161 -0.083455645 -0.23718594 0.08586941 -0.0062770913
0.59838665 -0.025278887 0.38667515 0.22271724 -0.07323353 0.033211187 0.119965896 0.40433645
0.43254155 0.59371686 -0.1275564 0.38639036 -0.06753221 0.24139144 -0.29180405 0.21886554
-0.07825214 0.63397044 0.38944995 0.5230832 0.03823767 -0.06832721 -0.18494675 -0.12450014
-0.11036715 -0.30225778 0.18483591 -0.23297457 -0.05403377 0.13125074 -0.008316015 0.088806584
0.0614332 0.35368398 0.6106119 0.20299733 -0.035368226 -0.00019182943 -0.05627653 -0.11601124
0.26962304 0.049406536 -0.038821135 -0.3522676 0.60051924 0.11044425 -0.34710366 0.13986719
0.22394659 -0.19796774

bias_hh_l1 f4 [90]
00000000: 3b63 523d 6ed9 6b3d ce63 943d 66d2 d0bd
00000010: 7c17 153f f7da e03e 20a7 fc3d b102 af3d
00000020: d071 093e c118 a0bd d9f4 e53c 02b2 e13c
00000030: a111 103e d25e 223d 9a3b cfbd 35be 7a3e
00000040: f20c 2cbd 09e4 383e 1938 fdbd b706 4e3d
00000050: c679 413c 7648 e5bd f50e d53e 5607 993e
00000060: f39e 8c3d 5b11 3a3e 52e5 0d3e 85e8 b03e
00000070: 93b7 493e 5774 823e 53e1 b83e f2a0 9a3e
00000080: ea61 f23d c1d7 ae3d b7da 94bd 5d45 853e
00000090: 7d82 00be 8fa5 89be 312b 953c 3abc 273e
000000a0: 1202 193f 4c75 98bd 30c6 df3e 36f9 0b3e
000000b0: 49c9 4abc c3ae 73bd 5b5c 61bd ec95 e03e
000000c0: 4e79 e03d 653c f13e cea9 85be 5d8f 013f
000000d0: d570 d6bd b6f6 3c3e aae2 75be 0b31 86bd
000000e0: 9f13 2cbb c1f4 213f efe4 c03e 4da3 343f
000000f0: 061a d83b 7063 353d 64ec 473e 28c0 4cbe
00000100: a984 7fbe a7e1 cdbe 5aaa 4abc 8e9a 303e
00000110: 015b 4abe 2f7f 083a e429 623e f8dd e6bc
00000120: c6a7 753e ee67 923e 632b ff3c dc2a 733e
00000130: 4475 103e 2c4e 173c 15c3 743d aeb0 a8bd
00000140: 2375 e73d 73c8 01bd 56b9 a6be 9f4b d0be
00000150: 3ab6 663e 8d6e 2fbd d016 773d 1c9a 233e
00000160: 07de a43e 53e7 bf3d
0.051364165 0.057580404 0.07245599 -0.1019638 0.5823896 0.43917057 0.12336564 0.08545435
0.13422322 -0.078172214 0.028070854 0.027550701 0.14069225 0.03964121 -0.1011879 0.2448662
-0.042004533 0.18055739 -0.123642154 0.050299373 0.011808818 -0.111954615 0.41612974 0.2988841
0.06866255 0.18170683 0.1385701 0.34552398 0.19698934 0.25479385 0.3610941 0.30200917
0.11835082 0.085372455 -0.07268279 0.26029482 -0.12549777 -0.26884124 0.018209072 0.16380396
0.59768784 -0.074442476 0.43705893 0.13669285 -0.012377092 -0.059492838 -0.055019718 0.4386438
0.10960637 0.4711639 -0.26106113 0.5060938 -0.1047074 0.18453488 -0.24012247 -0.06552323
-0.0026256812 0.6326409 0.37674662 0.7056168 0.006594899 0.044284284 0.1952377 -0.19995177
-0.2495295 -0.40211222 -0.012369717 0.17246458 -0.19761278 0.000520694 0.22086293 -0.028182015
0.23989782 0.28594917 0.031148618 0.23746818 0.14107233 0.009234946 0.059756357 -0.08236824
0.11301639 -0.031685304 -0.32563275 -0.40682694 0.22530451 -0.04283004 0.06032449 0.15976757
0.32200643 0.093702935

weight f4 [8, 30]
00000000: ce12 f13f c894 753f 1fe2 dabe 7956 d6be
00000010: 513d 593f c3c8 34bc 9d8f a53f 6506 7b3f
00000020: 0a27 adbe 39c9 ffbe c606 4ebd 8dc1 233f
00000030: a31e 903e 709f d93e 005f 723b 789a d53d
00000040: ed9a 6cbf 8f79 babe eaf1 383e 1c2c 433e
00000050: bf1a 81be 669d 84be c599 acbf 0504 13bf
00000060: 5fb3 2bbf 7e1d 6a3d 9f01 823e 12d5 2bbd
00000070: 566a ab3e d43d 0a3f 3117 5bbf 1cfe 87be
00000080: b067 9abf ef6e 83be dcd4 b1bf 0bbe 29bf
00000090: 68b9 e5bf dacd 893f 24b4 c3bd 2b3c f5be
000000a0: 8edf 253f fe68 1f3f bb23 123f 451e 823f
000000b0: 0bc4 85be 1027 35be dc62 ff3f c941 0cbf
000000c0: 5647 733f fe4c 643f ae22 fabe c415 22bf
000000d0: bce0 473f 23ce 6cbf c094 ff3e cf17 053f
000000e0: 7a81 153f d6ef 2ebf c362 173f cb75 cb3e
000000f0: 6682 043f 3bf3 49bf 9a03 b83f e5d2 7dbe
00000100: 22fb 67be d3db 16bf 06db 22be 721e cdbe
00000110: ef7e 263f 3847 553f 076d 003f 9b35 5dbf
00000120: b42d 053f 9814 ed3f 199b febf a3cb 363f
00000130: 76f0 313f 200c eabd c045 363f 3d8b 423f
00000140: 8afc 6d3f dcd3 363f 06e1 11bf 10d0 a4be
00000150: 0ac7 b6be 0968 dcbd 0f54 df3f a0f8 e3be
00000160: 74c0 b13f 1795 4f3f 725a 46bf fa4a ac3e
00000170: a095 93bf 2e8d 653f bfb8 bebf 9571 f7be
00000180: 6358 aa3f 902f a0bf d23c 14be 59bc 1a3f
00000190: 15d5 d13e 210d 16bf 67eb 093f 433c e0be
000001a0: e522 44bf eabf afbd d4ec 92bf 8ad1 cabe
000001b0: 3880 963d d2f2 a73e a130 2fbf ddc8 6fbe
000001c0: 54dd a03e d46d 00bf 510e 973f 493f 1abe
000001d0: fa09 933e fddd f0be c927 1c3d 9b04 bc3e
000001e0: 0c04 923d bafb 143e 26ab 80bf 8a68 c83f
000001f0: 5b0a e43e 89cc b5be 91eb 84bf f07f f8be
00000200: 884e 933f d944 91bf ae09 093f 6a69 943f
00000210: 7e6a e33e 87e3 92be 55da 7bbe e038 ab3f
00000220: e392 9dbf 5731 c3be 0c96 253f 446a dc3e
00000230: cbd9 a13f 411c c3be 4d45 28be 0759 413e
00000240: 73f9 5dbf d2d7 f7bd c860 473e e35e 1dbf
00000250: f990 35bd a64b 0c3f 2caf 7fbe bafc 7cbf
00000260: e6d5 803f b23d cbba 67c8 383d c123 abbe
00000270: 3618 b4bf 2ad5 4cbf c8d7 0bbf 0c09 6f3c
00000280: 9d4c 463f 46d0 f53d 1a6b e23e 01ef dcbf
00000290: 06c9 8e3f 8999 8d3e a24f 7abd 848a 813f
000002a0: e347 7a3e f8fc 353f 6e30 56bf 9f0a dd3e
000002b0: 12ae 95bf 4b2b f83e 59fe 7d3f 8d7b 72be
000002c0: 08f7 8ebf cb9f b0be 9cf5 893f 0c30 893d
000002d0: 72df 953e f585 0c40 1016 e23e 8168 bf3e
000002e0: ee64 c2be 3377 0bbf d35c a63b 4a9f 60bf
000002f0: cc51 703f 018d 583f c03f 533e ce69 4abf
00000300: 9b03 df3e cbeb 883f 28aa 813f a9b9 303f
00000310: 088e 94be 0429 8a3e 8e5d fb3e 16fd 8e3e
00000320: 1f22 363f 68df 12c0 a078 b43d e209 16be
00000330: 2735 213e 231a e43e 5dd1 1dbf 355d 08bf
00000340: e2ac 1abf 3a5f c93e 035e c43e e329 6dbe
00000350: bb8a c83e 8c04 e63e 22c9 afbe 475d 12bf
00000360: 960f 0e40 70f4 973f e4d6 573f d199 4c3f
00000370: 89e5 1a3f e7f6 5bbf a6aa 153f d690 03bf
00000380: fd2f f93e 06f7 0bbf 3bc5 9dbc c4c4 0ac0
00000390: 6463 d73e 9864 9e3e 1fc4 573f 4ff4 1bbe
000003a0: 037c 0d3f 3f2b 05bf 0866 93be e00e c2bf
000003b0: ef80 29bf 6dc6 29bf e79a 033e 0dd2 e73e
1.8833864 0.9593015 -0.42750642 -0.41862848 0.84859186 -0.011034193 1.2934452 0.9805663
-0.33818847 -0.49958208 -0.05029943 0.6396721 0.28148374 0.42504454 0.0036982894 0.10429853
-0.924239 -0.36420867 0.18061033 0.19059795 -0.25215718 -0.25901335 -1.3484427 -0.5742801
-0.67070574 0.057157032 0.25391862 -0.041951247 0.33479565 0.5400059 -0.8558226 -0.26561058
-1.2062893 -0.25670573 -1.3893085 -0.6630561 -1.7947206 1.0765946 -0.095558435 -0.47897467
0.6479424 0.6226958 0.5708577 1.0165488 -0.2612613 -0.17690682 1.9952044 -0.5478788
0.95030725 0.8917998 -0.48854584 -0.6331446 0.7807729 -0.9250204 0.49918175 0.51989454
0.5840069 -0.6833471 0.59135073 0.39738306 0.5176147 -0.78886765 1.4376099 -0.24787481
-0.22654393 -0.58929175 -0.15903863 -0.4006229 0.65037435 0.83311796 0.5016636 -0.8640992
0.5202286 1.852191 -1.9891082 0.71404475 0.6950754 -0.11428094 0.7120018 0.7599371
0.9296347 0.7141702 -0.56983984 -0.3218999 -0.3569873 -0.10762031 1.7447528 -0.44525623
1.3886857 0.8108687 -0.7748176 0.33650953 -1.1530037 0.8966855 -1.490013 -0.48328844
1.3308223 -1.2514515 -0.14476326 0.60443646 0.4098288 -0.58613783 0.5387482 -0.43795976
-0.76615745 -0.085815266 -1.1478524 -0.3961299 0.073486745 0.32802445 -0.68433577 -0.23416467
0.3141886 -0.50167584 1.1801244 -0.15063204 0.2871855 -0.47044364 0.03812388 0.36722264
0.07129678 0.14549151 -1.005223 1.5656903 0.4453915 -0.3550761 -1.0384389 -0.4853511
1.1508341 -1.1349136 0.53530395 1.159467 0.44417185 -0.28689215 -0.24595006 1.3376732
-1.2310451 -0.3812358 0.6468208 0.43049824 1.264459 -0.38107494 -0.16432686 0.18881617
-0.86708754 -0.12101711 0.19470513 -0.6147291 -0.04432771 0.5480293 -0.24969167 -0.9882313
1.0065277 -0.0015506058 0.045112994 -0.33425716 -1.4069889 -0.8001276 -0.5462613 0.014589559
0.7746065 0.12002616 0.44222337 -1.7260438 1.1155097 0.276562 -0.0611111 1.0120397
0.24441485 0.71089125 -0.8366765 0.43172166 -1.1693747 0.4847053 0.9921623 -0.23679943
-1.1169138 -0.34496912 1.0778079 0.06698617 0.29272038 2.195676 0.44157457 0.37384418
-0.37967628 -0.5447876 0.0050769835 -0.87743056 0.9387481 0.84590155 0.20629787 -0.79067695
0.43557438 1.0696958 1.0130053 0.69033295 -0.2901461 0.26984417 0.49094814 0.27927464
0.71145815 -2.2948856 0.0881207 -0.14652207 0.15742932 0.4455119 -0.6164759 -0.5326722
-0.6042005 0.39330465 0.38352975 -0.2316051 0.39168343 0.44925344 -0.3433314 -0.5717358
2.2197013 1.1871471 0.8431227 0.79922205 0.6050649 -0.8592362 0.58463514 -0.5139288
0.48669425 -0.546738 -0.019259086 -2.1682596 0.42068017 0.30936122 0.8428363 -0.15229915
0.5526735 -0.52019113 -0.2878878 -1.516079 -0.6621236 -0.663184 0.1285206 0.45277444

bias f4 [8]
00000000: c5f4 28be d825 cbbe ebec 21bf 7d8e cbbe
00000010: 32fc 10bf e460 f1be e56f c3be 74f6 8abe
-0.16499622 -0.3967731 -0.63252133 -0.39757147 -0.5663482 -0.47144234 -0.38171306 -0.27141154
